…
2018-12-03 06:14:14.485616: I tensorflow/core/common_runtime/gpu/gpu_device.cc:1103] Created TensorFlow device (/job:localhost/replica:0/task:0/device:GPU:1 with 11249 MB memory) -> physical GPU (device: 1, name: Tesla P100-PCIE-12GB, pci bus id: 0000:83:00.0, compute capability: 6.0)
2018-12-03 06:14:14.616249: I tensorflow/core/common_runtime/process_util.cc:69] Creating new thread pool with default inter op setting: 2. Tune using inter_op_parallelism_threads for best performance.
Done prepping
__________________________________________________________________________________________________
Layer (type)                    Output Shape         Param #     Connected to                     
==================================================================================================
input_1 (InputLayer)            (None, 520, 520, 1)  0                                            
__________________________________________________________________________________________________
conv2d_1 (Conv2D)               (None, 260, 260, 64) 3200        input_1[0][0]                    
__________________________________________________________________________________________________
batch_normalization_1 (BatchNor (None, 260, 260, 64) 256         conv2d_1[0][0]                   
__________________________________________________________________________________________________
activation_1 (Activation)       (None, 260, 260, 64) 0           batch_normalization_1[0][0]      
__________________________________________________________________________________________________
max_pooling2d_1 (MaxPooling2D)  (None, 130, 130, 64) 0           activation_1[0][0]               
__________________________________________________________________________________________________
conv2d_2 (Conv2D)               (None, 130, 130, 64) 4160        max_pooling2d_1[0][0]            
__________________________________________________________________________________________________
batch_normalization_2 (BatchNor (None, 130, 130, 64) 256         conv2d_2[0][0]                   
__________________________________________________________________________________________________
activation_2 (Activation)       (None, 130, 130, 64) 0           batch_normalization_2[0][0]      
__________________________________________________________________________________________________
conv2d_3 (Conv2D)               (None, 130, 130, 64) 36928       activation_2[0][0]               
__________________________________________________________________________________________________
batch_normalization_3 (BatchNor (None, 130, 130, 64) 256         conv2d_3[0][0]                   
__________________________________________________________________________________________________
activation_3 (Activation)       (None, 130, 130, 64) 0           batch_normalization_3[0][0]      
__________________________________________________________________________________________________
conv2d_5 (Conv2D)               (None, 130, 130, 256 16640       max_pooling2d_1[0][0]            
__________________________________________________________________________________________________
conv2d_4 (Conv2D)               (None, 130, 130, 256 16640       activation_3[0][0]               
…
                                                                 conv2d_4[0][0]                   
__________________________________________________________________________________________________
batch_normalization_4 (BatchNor (None, 130, 130, 256 1024        add_1[0][0]                      
__________________________________________________________________________________________________
activation_4 (Activation)       (None, 130, 130, 256 0           batch_normalization_4[0][0]      
__________________________________________________________________________________________________
conv2d_6 (Conv2D)               (None, 65, 65, 128)  32896       activation_4[0][0]               
__________________________________________________________________________________________________
batch_normalization_5 (BatchNor (None, 65, 65, 128)  512         conv2d_6[0][0]                   
__________________________________________________________________________________________________
activation_5 (Activation)       (None, 65, 65, 128)  0           batch_normalization_5[0][0]      
__________________________________________________________________________________________________
conv2d_7 (Conv2D)               (None, 65, 65, 128)  147584      activation_5[0][0]               
__________________________________________________________________________________________________
batch_normalization_6 (BatchNor (None, 65, 65, 128)  512         conv2d_7[0][0]                   
__________________________________________________________________________________________________
activation_6 (Activation)       (None, 65, 65, 128)  0           batch_normalization_6[0][0]      
__________________________________________________________________________________________________
conv2d_9 (Conv2D)               (None, 65, 65, 512)  131584      add_1[0][0]                      
__________________________________________________________________________________________________
conv2d_8 (Conv2D)               (None, 65, 65, 512)  66048       activation_6[0][0]               
__________________________________________________________________________________________________
add_2 (Add)                     (None, 65, 65, 512)  0           conv2d_9[0][0]                   
                                                                 conv2d_8[0][0]                   
__________________________________________________________________________________________________
batch_normalization_7 (BatchNor (None, 65, 65, 512)  2048        add_2[0][0]                      
__________________________________________________________________________________________________
activation_7 (Activation)       (None, 65, 65, 512)  0           batch_normalization_7[0][0]      
__________________________________________________________________________________________________
conv2d_10 (Conv2D)              (None, 65, 65, 128)  65664       activation_7[0][0]               
__________________________________________________________________________________________________
batch_normalization_8 (BatchNor (None, 65, 65, 128)  512         conv2d_10[0][0]                  
__________________________________________________________________________________________________
activation_8 (Activation)       (None, 65, 65, 128)  0           batch_normalization_8[0][0]      
__________________________________________________________________________________________________
conv2d_11 (Conv2D)              (None, 65, 65, 128)  147584      activation_8[0][0]               
__________________________________________________________________________________________________
batch_normalization_9 (BatchNor (None, 65, 65, 128)  512         conv2d_11[0][0]                  
__________________________________________________________________________________________________
activation_9 (Activation)       (None, 65, 65, 128)  0           batch_normalization_9[0][0]      
__________________________________________________________________________________________________
conv2d_12 (Conv2D)              (None, 65, 65, 512)  66048       activation_9[0][0]               
__________________________________________________________________________________________________
add_3 (Add)                     (None, 65, 65, 512)  0           add_2[0][0]                      
                                                                 conv2d_12[0][0]                  
__________________________________________________________________________________________________
batch_normalization_10 (BatchNo (None, 65, 65, 512)  2048        add_3[0][0]                      
__________________________________________________________________________________________________
activation_10 (Activation)      (None, 65, 65, 512)  0           batch_normalization_10[0][0]     
__________________________________________________________________________________________________
conv2d_13 (Conv2D)              (None, 65, 65, 128)  65664       activation_10[0][0]              
__________________________________________________________________________________________________
batch_normalization_11 (BatchNo (None, 65, 65, 128)  512         conv2d_13[0][0]                  
__________________________________________________________________________________________________
activation_11 (Activation)      (None, 65, 65, 128)  0           batch_normalization_11[0][0]     
__________________________________________________________________________________________________
conv2d_14 (Conv2D)              (None, 65, 65, 128)  147584      activation_11[0][0]              
__________________________________________________________________________________________________
batch_normalization_12 (BatchNo (None, 65, 65, 128)  512         conv2d_14[0][0]                  
__________________________________________________________________________________________________
activation_12 (Activation)      (None, 65, 65, 128)  0           batch_normalization_12[0][0]     
__________________________________________________________________________________________________
conv2d_15 (Conv2D)              (None, 65, 65, 512)  66048       activation_12[0][0]              
__________________________________________________________________________________________________
add_4 (Add)                     (None, 65, 65, 512)  0           add_3[0][0]                      
                                                                 conv2d_15[0][0]                  
__________________________________________________________________________________________________
batch_normalization_13 (BatchNo (None, 65, 65, 512)  2048        add_4[0][0]                      
__________________________________________________________________________________________________
activation_13 (Activation)      (None, 65, 65, 512)  0           batch_normalization_13[0][0]     
__________________________________________________________________________________________________
conv2d_16 (Conv2D)              (None, 33, 33, 256)  131328      activation_13[0][0]              
__________________________________________________________________________________________________
batch_normalization_14 (BatchNo (None, 33, 33, 256)  1024        conv2d_16[0][0]                  
__________________________________________________________________________________________________
activation_14 (Activation)      (None, 33, 33, 256)  0           batch_normalization_14[0][0]     
__________________________________________________________________________________________________
conv2d_17 (Conv2D)              (None, 33, 33, 256)  590080      activation_14[0][0]              
__________________________________________________________________________________________________
batch_normalization_15 (BatchNo (None, 33, 33, 256)  1024        conv2d_17[0][0]                  
__________________________________________________________________________________________________
activation_15 (Activation)      (None, 33, 33, 256)  0           batch_normalization_15[0][0]     
__________________________________________________________________________________________________
conv2d_19 (Conv2D)              (None, 33, 33, 1024) 525312      add_4[0][0]                      
__________________________________________________________________________________________________
conv2d_18 (Conv2D)              (None, 33, 33, 1024) 263168      activation_15[0][0]              
__________________________________________________________________________________________________
add_5 (Add)                     (None, 33, 33, 1024) 0           conv2d_19[0][0]                  
                                                                 conv2d_18[0][0]                  
__________________________________________________________________________________________________
batch_normalization_16 (BatchNo (None, 33, 33, 1024) 4096        add_5[0][0]                      
__________________________________________________________________________________________________
activation_16 (Activation)      (None, 33, 33, 1024) 0           batch_normalization_16[0][0]     
__________________________________________________________________________________________________
conv2d_20 (Conv2D)              (None, 33, 33, 256)  262400      activation_16[0][0]              
__________________________________________________________________________________________________
batch_normalization_17 (BatchNo (None, 33, 33, 256)  1024        conv2d_20[0][0]                  
__________________________________________________________________________________________________
activation_17 (Activation)      (None, 33, 33, 256)  0           batch_normalization_17[0][0]     
__________________________________________________________________________________________________
conv2d_21 (Conv2D)              (None, 33, 33, 256)  590080      activation_17[0][0]              
__________________________________________________________________________________________________
batch_normalization_18 (BatchNo (None, 33, 33, 256)  1024        conv2d_21[0][0]                  
__________________________________________________________________________________________________
activation_18 (Activation)      (None, 33, 33, 256)  0           batch_normalization_18[0][0]     
__________________________________________________________________________________________________
conv2d_22 (Conv2D)              (None, 33, 33, 1024) 263168      activation_18[0][0]              
__________________________________________________________________________________________________
add_6 (Add)                     (None, 33, 33, 1024) 0           add_5[0][0]                      
                                                                 conv2d_22[0][0]                  
__________________________________________________________________________________________________
batch_normalization_19 (BatchNo (None, 33, 33, 1024) 4096        add_6[0][0]                      
__________________________________________________________________________________________________
activation_19 (Activation)      (None, 33, 33, 1024) 0           batch_normalization_19[0][0]     
__________________________________________________________________________________________________
average_pooling2d_1 (AveragePoo (None, 1, 1, 1024)   0           activation_19[0][0]              
__________________________________________________________________________________________________
flatten_1 (Flatten)             (None, 1024)         0           average_pooling2d_1[0][0]        
__________________________________________________________________________________________________
dense_1 (Dense)                 (None, 1024)         1049600     flatten_1[0][0]                  
__________________________________________________________________________________________________
dropout_1 (Dropout)             (None, 1024)         0           dense_1[0][0]                    
__________________________________________________________________________________________________
dense_2 (Dense)                 (None, 1)            1025        dropout_1[0][0]                  
==================================================================================================
Total params: 4,713,729
Trainable params: 4,702,081
Non-trainable params: 11,648
__________________________________________________________________________________________________
Refreshing generator and dims
Loading dataset into memory for faster training
Done prepping
…
2018-12-03 06:15:50.936548: I tensorflow/core/common_runtime/gpu/gpu_device.cc:1103] Created TensorFlow device (/device:GPU:1 with 11249 MB memory) -> physical GPU (device: 1, name: Tesla P100-PCIE-12GB, pci bus id: 0000:83:00.0, compute capability: 6.0)
Done prepping
Beginning super_res training
Training with 2 GPUS...
__________________________________________________________________________________________________
Layer (type)                    Output Shape         Param #     Connected to                     
==================================================================================================
input_2 (InputLayer)            (None, 260, 260, 1)  0                                            
__________________________________________________________________________________________________
lambda_1 (Lambda)               (None, 260, 260, 1)  0           input_2[0][0]                    
__________________________________________________________________________________________________
lambda_2 (Lambda)               (None, 260, 260, 1)  0           input_2[0][0]                    
__________________________________________________________________________________________________
model_2 (Model)                 (None, 1)            4735253     lambda_1[0][0]                   
                                                                 lambda_2[0][0]                   
__________________________________________________________________________________________________
model_1 (Concatenate)           (None, 1)            0           model_2[1][0]                    
                                                                 model_2[2][0]                    
==================================================================================================
Total params: 4,735,253
Trainable params: 21,324
Non-trainable params: 4,713,929
__________________________________________________________________________________________________
…
